checkpoint.pt (torch, 98353 bytes, 4 tensors)

i2h.weight f4 [128, 185]
0	0xbd994df2	-0.0748557
1	0x3cf6823a	0.030091394
2	0xbbd740c3	-0.0065689995
3	0x3cb80de5	0.022467563
4	0xbc2b0419	-0.010437989
5	0xbd05a78f	-0.0326305
6	0xbd466864	-0.0484394
7	0xbca19d75	-0.019728402
8	0xbcd7da63	-0.026349252
9	0x3c808075	0.015686253
10	0x3cd47099	0.025932597
11	0xbc52924c	-0.012852263
12	0x3b9ea988	0.004841987
13	0xbd8784b6	-0.066171095
14	0x3caaf8a2	0.02087051
15	0x3d801bf3	0.06255331
16	0xbcce903e	-0.025215264
17	0xbcade5b0	-0.021227688
18	0x3b8dbc2b	0.00432541
19	0x3d8ef4ef	0.06980311
20	0xbca39433	-0.019968128
21	0x3d0ff8d7	0.03514942
22	0x3bef38eb	0.0073004863
23	0x3c946ecc	0.018119238
24	0xbbb4dfd1	-0.005519845
25	0xbd0acfca	-0.03388957
26	0xbd1c7207	-0.038194682
27	0x3d91df1e	0.07122634
28	0x3c5562c3	0.013024035
29	0xbd8315c5	-0.064006366
30	0x3d5b388c	0.053520724
31	0x3d509681	0.05092478
32	0x3c75051f	0.014954834
33	0x3d0bc3d2	0.034122296
34	0xbd44ca55	-0.04804452
35	0x3d175a2a	0.03695122
36	0x3d257fca	0.040405072
37	0xbd8fd9ac	-0.070239395
38	0xbd84c1e4	-0.06482294
39	0xbd2ce3c2	-0.042209394
40	0xbd3036c8	-0.043020993
41	0xbcbccf71	-0.023048135
42	0x3cefaef8	0.029258236
43	0xbd78e5b8	-0.060765952
44	0xbd804a34	-0.06264153
45	0x3d92121a	0.07132359
46	0x3ccbfe35	0.024901489
47	0xbbb72f6a	-0.005590369
48	0xbd145d7f	-0.036221977
49	0x3d1fc852	0.0390094
50	0xb98dec16	-0.00027069513
51	0xbd06bfa2	-0.0328976
52	0x3c97cbee	0.018529858
53	0x3d056983	0.032571327
54	0x3d65577c	0.055991635
55	0x3b0db71a	0.002162403
56	0x3d15b32e	0.036547832
57	0xbc6f0832	-0.014589356
58	0x3ab6c90e	0.0013945417
59	0xbb147f5f	-0.0022658927
60	0xbcdaee85	-0.026725063
61	0x3d430f6d	0.047622133
62	0xbd58b0ab	-0.05290286
63	0x3ceb2d07	0.028707994
64	0x3d01bdb9	0.031675074
65	0x3d6f6de6	0.058454417
66	0xbd364221	-0.04449666
67	0xbd24cfa9	-0.040237103
68	0x3cbb2a8f	0.022847442
69	0x3cf1fca8	0.029539421
70	0xbd41fcbb	-0.047360163
71	0x3d1672b6	0.03673049
72	0xba9bd2b0	-0.0011888351
73	0x3d8ada9e	0.06779979
74	0xbd89331f	-0.06699204
75	0xbd0b52f5	-0.03401466
76	0x3d963216	0.07333772
77	0x3d143ff4	0.036193803
78	0xbd1dba53	-0.03850777
79	0x3d84847e	0.064705834
80	0x3d8de2d2	0.06928028
81	0x3c441cf7	0.011969796
82	0xba03df89	-0.0005030563
83	0x3d7573af	0.059924778
84	0x3d4a9d15	0.04946621
85	0xbd95732e	-0.072973594
86	0x3d78e34f	0.060763653
87	0xbd06bde9	-0.032895956
88	0xbd3c064c	-0.045904443
89	0x3bdf2f0a	0.0068110274
90	0xbc8b1826	-0.016979288
91	0xbd457138	-0.048203677
92	0xbd6a43bf	-0.057193514
93	0xbca2b018	-0.019859359
94	0x3c20a420	0.009804755
95	0x3d6fa0a9	0.058502827
96	0x3d1255f9	0.03572652
97	0xbcc28f88	-0.023750082
98	0xbc64e6c0	-0.013971031
99	0x3d3bdccd	0.04586487
100	0x3d5bec16	0.053691946
101	0xbbe15ccb	-0.006877517
102	0x3d916ea9	0.07101185
103	0xbca8245c	-0.02052515
104	0xbcd04388	-0.025422826
105	0xbd00fbb3	-0.03149004
106	0xbd828d86	-0.0637465
107	0x3d4ab441	0.04948831
108	0x3cd7fb2b	0.026364883
109	0x3c85dba6	0.016340088
110	0xbd135a6d	-0.03597491
111	0x3d3bcc48	0.045849115
112	0x3d80d1ad	0.062899925
113	0x3cc50abe	0.024052974
114	0xbcecc56a	-0.028902728
115	0xbc954429	-0.018220978
116	0x3d16c4fc	0.036808953
117	0xbd85cd89	-0.06533343
118	0xbd815277	-0.06314557
119	0xbd876288	-0.0661059
120	0xbd770c3b	-0.0603144
121	0xbd10377c	-0.035209164
122	0xbd858b22	-0.06520678
123	0xbce916fd	-0.028453344
124	0xbc4f8d0c	-0.012667906
125	0xbbea7897	-0.0071554887
126	0xbd3df232	-0.046373554
127	0x3d40f655	0.04710992
128	0x3d113462	0.035450347
129	0xbd8cfe96	-0.06884496
130	0xbd7f08d0	-0.062264264
131	0x3cd78539	0.026308643
132	0x3cc6691d	0.024220044
133	0xbc305a65	-0.010763739
134	0x3ce379db	0.027768066
135	0xbbaf0935	-0.0053416737
136	0x3c99ae4c	0.018759869
137	0xbc92341a	-0.01784711
138	0x3d8541c4	0.065066844
139	0x3d483cef	0.048886236
140	0xbd86d36a	-0.06583293
141	0xbc8c0989	-0.01709439
142	0xbd071d4f	-0.032986935
143	0x3c86d090	0.016456872
144	0xbd259336	-0.040423594
145	0xbd0329a7	-0.032022145
146	0xbd6691d4	-0.056291416
147	0xbc7eac56	-0.015544018
148	0x3d8da5a1	0.06916357
149	0xbd2b6993	-0.04184873
150	0xbbf7cdb3	-0.007562363
151	0x3d37eb70	0.044902265
152	0x3cc69a06	0.024243366
153	0x3cbe5675	0.023234585
154	0xbd4441cb	-0.047914308
155	0x3d7d44a9	0.061833058
156	0x3d52d0c6	0.051468633
157	0x3cc7cc34	0.024389364
158	0xbd55fad4	-0.05224116
159	0xbd10add1	-0.035322014
160	0x3d88ac7a	0.06673522
161	0xbbf325b3	-0.0074202656
162	0xbd6eb20b	-0.058275264
163	0xbd8d6fb1	-0.06906069
164	0x3d868e19	0.06570072
165	0x3d84a6e3	0.064771436
166	0x3d2e6374	0.042575315
167	0x3d6d1896	0.057884775
168	0x3d3f653b	0.0467274
169	0xbd8b7383	-0.068091415
170	0xbbdbdf51	-0.006709971
171	0x3d88209b	0.06646844
172	0xbd17ca09	-0.03705791
173	0xbd47bc67	-0.04876366
174	0xbd0e89ad	-0.034799267
175	0x3b30e807	0.0026993768
176	0x3d4a8a4d	0.0494483
177	0x3cdfc87d	0.02731728
178	0xbc3a7604	-0.011380676
179	0xbb62011a	-0.003448552
180	0xbd38180e	-0.044944815
181	0xbd102d82	-0.03519965
182	0x3c88f838	0.016719922
183	0xbcc4c112	-0.024017844
184	0xbc698d1f	-0.014254837
185	0x3d6b3563	0.05742396
186	0xba7afae0	-0.00095741265
187	0x3bfdae2a	0.0077417092
188	0x3d1d0bd2	0.03834135
189	0x3bf2370d	0.0073918165
190	0x3ce32116	0.027725738
191	0xbd0b4543	-0.0340016
192	0x3d87d22b	0.06631883
193	0xbd8666c0	-0.06562567
194	0xbb7f6ba8	-0.003897408
195	0x3d220d5f	0.039563533
196	0x3cf715e3	0.030161804
197	0xbd87ef6d	-0.06637464
198	0x3d131a5a	0.035913803
199	0x3d706a79	0.05869529
200	0xbd3fb8ab	-0.046806972
201	0x3bea2e1d	0.0071466104
202	0xbb72155e	-0.0036939005
203	0xbc2f7751	-0.0107096
204	0x3d337960	0.043816924
205	0x3d33dfde	0.04391467
206	0x3d9a1dc7	0.07525211
207	0xbcbdb356	-0.023156803
208	0x3c4e9497	0.012608669
209	0x3d644e12	0.055738516
210	0x3cc77483	0.02434755
211	0xbd29089c	-0.041267976
212	0x3d5995ed	0.053121496
213	0x3cc1bddc	0.023650102
214	0xbcce72e6	-0.025201272
215	0x39ae00f3	0.00033188573
216	0xbd79c869	-0.06098214
217	0xbcdf8384	-0.027284391
218	0xbc57ce4b	-0.013171743
219	0x3cf8fe66	0.030394744
220	0xbcfd1848	-0.030895367
221	0x3d15c42d	0.03656404
222	0xbcbb45a3	-0.022860354
223	0x3cc67ba8	0.024228886
224	0xbc4e25c4	-0.012582246
225	0xbc7f5553	-0.015584308
226	0xbbcbf570	-0.006224327
227	0xbd932f56	-0.07186763
228	0xbd275b1c	-0.040858373
229	0xbd713997	-0.058892813
230	0x3d1ad4f7	0.037800755
231	0x3c74b8f1	0.014936672
232	0xbb15b4ba	-0.0022843317
233	0x3d4d892e	0.050179653
234	0xbb8e5db7	-0.004344668
235	0x3c0d9b75	0.008643021
236	0x3d780970	0.060555875
237	0x3cb00139	0.021484958
238	0xbd4f23ad	-0.050571132
239	0xbd2a5fb4	-0.041595176
240	0xbd00cd66	-0.031445883
241	0x3c2ff579	0.010739678
242	0xbc4d0eca	-0.012515733
243	0xbd1f8ad9	-0.038950775
244	0x3d72f770	0.059318006
245	0x3d8b3875	0.06797878
246	0xbd26ada9	-0.04069296
247	0xbca6d5e5	-0.020365665
248	0x3d173f64	0.03692569
249	0xbb8c763e	-0.0042865565
250	0xbd815d8c	-0.06316671
251	0xbd575883	-0.052574646
252	0x3c29387a	0.0103284065
253	0x3d65657f	0.056004997
254	0x3c9d0ba7	0.019170595
255	0x3cc246f3	0.023715472

i2h.bias f4 [128]
0	0x3d960e67	0.07326966
1	0xbcd0fe6e	-0.025511947
2	0x3c6ceb40	0.014460385
3	0x3d8ea5f8	0.0696525
4	0x3cba8b97	0.02277164
5	0xbc59e32a	-0.013298789
6	0xbd57c535	-0.052678306
7	0x3c8f1f55	0.017470995
8	0x3d5ec7d5	0.054389793
9	0xbd041a2d	-0.032251526
10	0xbd8b7ee6	-0.06811313
11	0x3d58a3ca	0.052890576
12	0xbd4e30a1	-0.050339345
13	0xbd7e13c4	-0.06203057
14	0xbd1f5a38	-0.0389044
15	0xbd6450bd	-0.05574106
16	0x3c0f3b28	0.008742131
17	0xbd3b2dc4	-0.045697942
18	0xbc4b98d2	-0.012426572
19	0x3c2ee9d0	0.010675862
20	0x3c4da2b0	0.012550995
21	0xbd2c5b13	-0.042079043
22	0xbc82e082	-0.015976194
23	0x3c366633	0.011132765
24	0xbd70fffd	-0.05883788
25	0x3d393ba3	0.04522289
26	0xbd638dc8	-0.055555135
27	0xbd60663e	-0.054785006
28	0x3d8e915f	0.06961321
29	0xbd0b49e3	-0.03400601
30	0xbcdfff1c	-0.027343325
31	0x3d793b88	0.06084779
32	0xbc4947f8	-0.012285225
33	0x3d6c2375	0.057651002
34	0x3d404ba0	0.04694712
35	0xbd2deba3	-0.04246105
36	0x3d73caf6	0.05951973
37	0x3c8d1f0d	0.01722672
38	0xbc1bf3ae	-0.009518547
39	0x3d8b2c3c	0.067955464
40	0xbd102781	-0.035193924
41	0x3d8b7795	0.06809918
42	0xbd758e82	-0.05995036
43	0x3d5ff17e	0.054673664
44	0x3d7a9feb	0.061187666
45	0xbabd8662	-0.0014459605
46	0xbd722604	-0.059118286
47	0xbd6ea895	-0.05826624
48	0xbd3be20e	-0.04586988
49	0xbd95700a	-0.072967604
50	0xbd4cc4da	-0.04999242
51	0x3d680d50	0.05665332
52	0xbd0e2960	-0.034707427
53	0xbc815267	-0.015786363
54	0x3d88f0b6	0.06686537
55	0x3d799f7c	0.06094311
56	0x3d65fcca	0.05614928
57	0xbb2a76d3	-0.0026010766
58	0xbd565607	-0.052328136
59	0xbcdb6546	-0.02678169
60	0x3cf24f8d	0.029578948
61	0x3d82c232	0.06384696
62	0xbc94cb02	-0.018163208
63	0xbc90f61a	-0.017695475
64	0xbd1b81c8	-0.037965566
65	0x3d634543	0.055485975
66	0xbd59fa2a	-0.05321709
67	0xbc8b5ed0	-0.017012984
68	0xbd68ad2c	-0.056805775
69	0x3d6c13a2	0.05763591
70	0x3d642c67	0.055706408
71	0xbd5dcf98	-0.054153055
72	0x3b7e8575	0.003883687
73	0x3d8f4df8	0.06997293
74	0x3d30b32c	0.04313962
75	0x3d803178	0.062594354
76	0xbc8d1117	-0.017220063
77	0xbd7e1d9f	-0.062039968
78	0x3d90ab7a	0.070639566
79	0x3beaaa4d	0.0071614147
80	0x3ce3825a	0.027772117
81	0x3d631468	0.055439383
82	0x3d89a0a2	0.067200914
83	0x3c10d05f	0.008838742
84	0x3d29074a	0.041266717
85	0x3d571360	0.05250871
86	0x3d8c0f77	0.06838887
87	0xbd2e3214	-0.042528227
88	0xbccb8e33	-0.02484808
89	0x3d0e1470	0.03468746
90	0x3ca6c74b	0.020358702
91	0xbcbb420a	-0.022858638
92	0xbd8e21ca	-0.069400385
93	0xbd37d91b	-0.044884782
94	0xbd8aa639	-0.06769986
95	0xbc2f9077	-0.010715595
96	0x3d144514	0.03619869
97	0x3be5cd28	0.007012982
98	0xbd06e93f	-0.032937285
99	0xbd16dd72	-0.03683228
100	0xbcb39e07	-0.02192594
101	0x3d888c2b	0.0666736
102	0xbd04264a	-0.032263078
103	0xbd131cb3	-0.03591604
104	0xbd4c23ca	-0.04983882
105	0xbcd5cf4b	-0.026099822
106	0xbc95161d	-0.018199021
107	0xbb79d1e9	-0.00381195
108	0x3d1afbc8	0.037837774
109	0x3c8b8b64	0.01703424
110	0xbd19a034	-0.037506297
111	0xbad29452	-0.0016065931
112	0x3d80e819	0.06294269
113	0xbd615b76	-0.055018865
114	0x3cae6a65	0.021290967
115	0x3c134055	0.008987506
116	0xbd8dd728	-0.069258034
117	0x3d65727b	0.05601738
118	0x3d9097e2	0.07060219
119	0x3d7f3722	0.062308438
120	0x3d3f3ab5	0.046686847
121	0x3bb0e90c	0.005398875
122	0xbcc70152	-0.024292622
123	0xbc5515fe	-0.013005732
124	0xbcab7d2a	-0.020933706
125	0xbd5b5ed6	-0.05355724
126	0xbd80d619	-0.06290836
127	0x3d212a74	0.039347127

i2o.weight f4 [2, 185]
0	0xbd39218b	-0.045198005
1	0x3d26b598	0.040700525
2	0x3c9fe7e1	0.019519748
3	0x3c8a34a0	0.016870797
4	0xbceabd32	-0.028654668
5	0x3d6f5b70	0.05843681
6	0x3c03aee1	0.0080373
7	0xbd055f8a	-0.032561816
8	0xbd488e3a	-0.048963763
9	0x3cae1883	0.021251922
10	0xbd1595dc	-0.03651987
11	0xbd0fab75	-0.035075624
12	0x3c4c000c	0.012451183
13	0x3d259f69	0.04043523
14	0xbd11d2ab	-0.0356013
15	0xbda2c955	-0.07948557
16	0xbcc8e248	-0.024521962
17	0xbda8ed69	-0.082484074
18	0x3e1c3ddb	0.15257971
19	0xbd85e933	-0.0653862
20	0x3ad60941	0.0016329662
21	0x3cf32b82	0.029683832
22	0xbcda7d66	-0.026671123
23	0x3d79876b	0.06092016
24	0x3bb15437	0.0054116505
25	0xbd8369da	-0.06416674
26	0xbcda0a32	-0.02661619
27	0x3d721460	0.059101462
28	0x3c27484e	0.01021011
29	0x3ce2b3dc	0.027673654
30	0x3d8ab52a	0.067728356
31	0x3d81dce0	0.06340957
32	0x3d79439f	0.060855504
33	0x3cbe43f4	0.023225762
34	0x3d8886d4	0.066663414
35	0x3cc9cefb	0.024634829
36	0x3d52c65c	0.0514587
37	0xbb8904c9	-0.0041814786
38	0x3cb3218b	0.02186658
39	0xbd27b616	-0.040945135
40	0x3d4454e2	0.047932513
41	0x3d1c6b8c	0.038188502
42	0xba57e134	-0.0008235157
43	0xbd13e684	-0.03610851
44	0xbc5d4ca0	-0.013507038
45	0x3d5abd04	0.053402916
46	0x3d968cc0	0.07351065
47	0xbca624de	-0.020281252
48	0x3cda01d5	0.026612202
49	0xbd6257de	-0.055259578
50	0xbc202bd1	-0.009776072
51	0x3d4131ab	0.047166508
52	0x3cdeffe0	0.02722162
53	0x3b03f75a	0.0020136447
54	0xbd421d6d	-0.047391344
55	0x3d4cf84e	0.05004149
56	0x3b5c49b8	0.0033613276
57	0xbd2cca68	-0.042185217
58	0x3c962e6c	0.018332683
59	0x3db01c06	0.08599095
60	0x3dc8470f	0.09779178
61	0x3d3062ce	0.043062977
62	0xbd1b1986	-0.037866138
63	0xbd5d5f32	-0.054045863
64	0xbd9687ba	-0.073501065
65	0x3d8d6571	0.06904114
66	0x3d1ab6cf	0.037771996
67	0x3dbff6dc	0.093732566
68	0x3b9d0b2f	0.004792593
69	0x3d18c621	0.037298325
70	0xbd1de023	-0.03854383
71	0xbdad7af7	-0.08470719
72	0x3d854650	0.06507552
73	0xbd0687aa	-0.032844223
74	0xbccc4688	-0.024935976
75	0x3d3fb6e4	0.046805277
76	0x3c18b841	0.009321273
77	0xbc1f7fda	-0.009735072
78	0xbdaae433	-0.08344307
79	0xbdb6c2f8	-0.08923906
80	0x3c778c03	0.015109065
81	0x3ca099d3	0.0196046
82	0x3d4aba22	0.049493916
83	0xbd126018	-0.035736173
84	0x3d894112	0.06701864
85	0xbce0c369	-0.027436929
86	0xbd902c35	-0.07039682
87	0xbba32e70	-0.004979901
88	0xbc6b93a3	-0.014378461
89	0xbddfa069	-0.10919268
90	0x3db9a182	0.09064008
91	0x3d05483a	0.032539584
92	0xba925ce7	-0.0011166603
93	0xbc9af55a	-0.01891582
94	0xbd4c0adf	-0.049815055
95	0xbda56571	-0.08075989
96	0x3d1d3f23	0.03839029
97	0xbdb293c3	-0.087195896
98	0xbb8ba986	-0.004262152
99	0xbdcbefd5	-0.09957854
100	0x3d99f531	0.0751747
101	0x3d180ca8	0.037121445
102	0xbd981591	-0.074259885
103	0x3dcbfc5a	0.099602416
104	0x3cbd69f4	0.023121811
105	0x3ca30693	0.019900596
106	0xbd313a70	-0.04326862
107	0xbd6d2b65	-0.057902712
108	0x3c9a6423	0.018846577
109	0x3d57a92b	0.052651566
110	0x3d85b5e3	0.06528833
111	0xbccf3e3c	-0.02529823
112	0xbd31647b	-0.043308716
113	0x3bef591d	0.0073043243
114	0xbd7ff911	-0.062493388
115	0x3ba408e9	0.005005945
116	0x3c26e329	0.010185995
117	0x3d3b1005	0.045669574
118	0x3d923a9d	0.07140086
119	0x3cf12f81	0.029441597
120	0x3d233b48	0.039851457
121	0x3d6bf0dc	0.05760275
122	0x3a710980	0.0009194836
123	0x3c085e39	0.008323246
124	0xbca8a553	-0.020586645
125	0xbd554530	-0.052067935
126	0x3c1a5df7	0.009421817
127	0xbd00d9f6	-0.031457864
128	0x3d98a976	0.07454197
129	0x3cf00096	0.029297154
130	0x3d77bfcf	0.060485657
131	0x3d9e06b3	0.077161215
132	0xbd1e416b	-0.038636606
133	0xbd88c0ff	-0.06677436
134	0xbe0577fd	-0.13034053
135	0x3dae476e	0.08509718
136	0xbbbe9e2e	-0.0058171963
137	0x3d79acfa	0.06095598
138	0x3d2fbddd	0.042905677
139	0xbd9c4501	-0.07630349
140	0x3ce2df0f	0.027694253
141	0x3d712355	0.058871586
142	0x3cd82d65	0.026388833
143	0xbc4a45db	-0.012345756
144	0xbd8a3b13	-0.06749549
145	0xbda55f4e	-0.080748186
146	0xbcfa49c5	-0.030552754
147	0x3d71e332	0.05905456
148	0xbdc40aa0	-0.09572339
149	0x3d94c0cc	0.072633356
150	0x3d78eba5	0.060771603
151	0x3cff1779	0.031139122
152	0x3ad390f5	0.0016141223
153	0x3cd490ce	0.025947955
154	0xbbb5add0	-0.0055444017
155	0x3c123509	0.008923777
156	0xbd96331a	-0.073339656
157	0x3d9db662	0.077008024
158	0xbd5fd57f	-0.054646965
159	0xbd9410b6	-0.0722975
160	0x3c8dc863	0.017307466
161	0xbd0317cc	-0.032005116
162	0x3ccad9b2	0.024762008
163	0xbce61cb9	-0.028089868
164	0x3cbad035	0.022804359
165	0xbd8e12cb	-0.06937178
166	0xbc9ef645	-0.01940454
167	0x3db0a5ea	0.086253956
168	0x3de6b25b	0.11264487
169	0x3d52b515	0.051442225
170	0xbd11a9f7	-0.03556248
171	0x3d2a32b6	0.041552268
172	0x3dc51ca7	0.096246056
173	0x3d00d98d	0.031457473
174	0x3daf6668	0.08564454
175	0x3cbaae8c	0.022788309
176	0xbca159c4	-0.019696124
177	0xbc999e8d	-0.01875236
178	0xbd874d65	-0.06606559
179	0x3d8c1096	0.06839101
180	0x3d3fa1ec	0.04678528
181	0xbadfc3b4	-0.0017071874
182	0x3c1eb3ec	0.009686451
183	0xbd23fd0c	-0.040036246
184	0x3ce8e519	0.028429555
185	0x3d8b4691	0.06800569
186	0x3d99371d	0.07481215
187	0xbbe38dcc	-0.0069443937
188	0x3da5f902	0.08104135
189	0x3da00634	0.07813683
190	0x3c98d8ef	0.01865813
191	0xbd3576b5	-0.04430266
192	0xbd0b7ccd	-0.034054566
193	0x3a5a25bb	0.00083216623
194	0x3b8074fa	0.0039201947
195	0x3c7e367b	0.015515919
196	0xbdb7ba41	-0.08971072
197	0x3d816ea8	0.06319934
198	0x3cf387ff	0.029727934
199	0x3d0b7197	0.034043875
200	0x3d46af07	0.048506763
201	0xbcfd742f	-0.03093919
202	0x3d42dd10	0.047574103
203	0xbd6fde35	-0.058561523
204	0x3c8f3fed	0.017486537
205	0x3d719cb3	0.05898733
206	0xbd53dfd6	-0.05172714
207	0xbda0c6b9	-0.07850403
208	0x3c0643cc	0.008194875
209	0x3ca810b5	0.020515779
210	0x3d589724	0.052878514
211	0xbbe40a53	-0.0069592386
212	0xbd75ccb5	-0.060009677
213	0x3d78d62b	0.06075112
214	0x3d2ba0ab	0.04190127
215	0x3d6e4f02	0.058180816
216	0xbc87ed74	-0.016592719
217	0xbcef111b	-0.029182961
218	0x3d3f29ca	0.046670713
219	0x3d35bde4	0.044370547
220	0xbd19f71d	-0.03758918
221	0x3d47c460	0.048771262
222	0xbd9c387f	-0.07627963
223	0xbd2b4717	-0.041815843
224	0xbd55ba71	-0.052179758
225	0x3d490a4e	0.049082093
226	0x3d7ef841	0.062248472
227	0x3b28f58f	0.002578113
228	0xbd377d2b	-0.044797104
229	0xbb833b57	-0.0040048766
230	0x3d70934c	0.058734223
231	0xbd58c674	-0.052923635
232	0x3d029d0f	0.031888064
233	0x3d1291b7	0.035783496
234	0x3d755aa1	0.059900884
235	0x3b313344	0.0027038613
236	0xbc597c8e	-0.013274325
237	0xbd2184b8	-0.03943321
238	0xbc846651	-0.01616207
239	0x3bbf548d	0.0058389367
240	0x3b78377f	0.0037874875
241	0xbc881304	-0.01661063
242	0xbda65317	-0.08121317
243	0x3ca4bb3d	0.020108813
244	0xbcc2710a	-0.023735542
245	0xbd32b81c	-0.04363261
246	0xbd51b9f8	-0.051202744
247	0xbd246b39	-0.040141318
248	0xbc84d265	-0.016213605
249	0x3e01b9b7	0.12668501
250	0xbd616820	-0.055030942
251	0x3dad07bb	0.0844874
252	0xbd1b3c80	-0.037899494
253	0x3a7b37f7	0.00095832295
254	0x3cdfa8f2	0.02730224
255	0x3dd0cfc1	0.10195876

i2o.bias f4 [2]
0	0xbd5061d2	-0.05087454
1	0xbb46feaf	-0.0030364206
